…
e architecture for the two original BERT models:\n\n<figure class=\"image table text-center m-0 w-full\">\n  <medium-zoom background=\"rgba(0,0,0,.7)\" alt=\"Original BERT models architecture\" src=\"assets/52_bert_101/BERT-size-and-architecture.png\"></medium-zoom>\n</figure>\n\n\nML Architecture Glossary:\n\n| ML Architecture Parts | Definition                                                                                                                                                        |\n|-----------------------|-----------------------------------------------------------...", "(query): Linear(in_features=768, out_features=768, bias=True)\n                    (key): Linear(in_features=768, out_features=768, bias=True)\n                    (value): Linear(in_features=768, out_features=768, bias=True)\n                    (dropout): Dropout(p=0.1, inplace=False)\n                  )\n                  (output): BertSelfOutput(\n                    (dense): Linear(in_features=768, out_features=768, bias=True)\n                    (LayerNorm): LayerNorm((768,), eps=1e-12, elementwise_affine=True)\n                    (dropout): Dropout(p=0.1, inplace=False)\n                  )\n                )\n                (intermediate): BertIntermediate(\n                  (dense): Linear(in_features=768, out_features=3072, bias=True)\n                )\n                (output): BertOutput(\n                  (dense): Linear(in_features=3072, out_features=768, bias=True)\n                  (LayerNorm): LayerNorm((768,), eps=1e-12, elementwise_affine=True)\n                  (dropout): Dropout(p=0.1, inplace=False)\n                )\n              )\n            )\n          )\n        )\n        (cls): BertOnlyMLMHead(\n          (predictions): BertLMPredictionHead(\n            (transform): BertPredictionHeadTransform(\n              (dense): Linear(in_features=768, out_features=768, bias=True)\n              (LayerNorm): LayerNorm((768,), eps=1e-12, elementwise_affine=True)\n            )\n            (decoder): Linear(in_features=768, out_features=30522, bias=True)\n          )\n        )\n      )\n    )\n```"], "test_settings": "chunk_7000_embeddings_openai-text-embedding-3-small_reader-model_gpt-4", "eval_score_GPT4": "5", "eval_feedback_GPT4": "The response accurately identifies the architectural feature used by SqueezeBERT, which is grouped convolutions, aligning with the criterion answer. The additional re
…
ransformerManager.MODEL_MAPPING`. This should contain the mapping between a model type, and the `Tuple[str, BetterTransformerBaseLayer]` composed of the name of the `nn.Module` that can be converted to its `BetterTransformer` equivalent, and effectively the equivalent `BetterTransformer` layer class.\n\nLet us try to do it step by step for `Bert`, first we need to identify the layers that needs to be replaced:\n```python\n>>> from transformers import AutoModel\n\n>>> model = AutoModel.from_pretrained(\"bert-base-uncased\")\n>>> print(model)  # doctest: +IGNORE_RESULT\n...\n          (LayerNorm): LayerNorm((768,), eps=1e-12, elementwise_affine=True)\n          (dropout): Dropout(p=0.1, inplace=False)\n        )\n      )\n      (11): BertLayer(\n        (attention): BertAttention(\n          (self): BertSelfAttention(\n            (query): Linear(in_features=768, out_features=768, bias=True)\n            (key): Linear(in_features=768, out_features=768, bias=True)\n            (value): Linear(in_features=768, out_features=768, bias=True)\n            (dropout): Dropout(p=0.1, inplace=False)\n          )\n          (output): BertSelfOutput(\n            (dense): Linear(in_features=768, out_features=768, bias=True)\n            (LayerNorm): LayerNorm((768,), eps=1e-12, elementwise_affine=True)\n            (dropout): Dropout(p=0.1, inplace=False)\n          )\n        )\n        (intermediate): BertIntermediate(\n          (dense): Linear(in_features=768, out_features=3072, bias=True)\n          (intermediate_act_fn): GELUActivation()\n        )\n        (output): BertOutput(\n          (dense): Linear(in_features=3072, out_features=768, bias=True)\n          (LayerNorm): LayerNorm((768,), eps=1e-12, elementwise_affine=True)\n          (dropout): Dropout(p=0.1, inplace=False)\n        )\n      )\n    )\n  )\n  (pooler): BertPooler(\n    (dense): Linear(in_features=768, out_features=768, bias=True)\n    (activation): Tanh()\n  )\n)\n```\n\nYou can clearly see that the layers that need to be replaced are the `BertLayer` modules since they contain the whole encoder layer module.\n\n### Step 2: Building the `xxxLayerBetterTransformer` module\n\nCheck that the identified module is not already copied from another module (by inspecting the source code 
…
